p3/server/ckpt/final.pt (torch, 88574 bytes, 20 tensors)

mlp.0.weight f4 [64, 171]
000000 32 88 74 3c 02 8d 97 3d fd 82 ac bd 12 da 95 3d
       0.01492505 0.07399942 -0.084234215 0.07316984
000010 88 38 6a bc b5 92 ec bb 70 e6 2f 3d 6c 52 83 bd
       -0.014295705 -0.0072196373 0.04294437 -0.06412205
000020 81 2e 04 3d f1 a8 08 3c 29 9b d7 bd c5 9d 40 3c
       0.032270912 0.00834106 -0.10527641 0.011756365
000030 90 70 00 bd 97 5f 98 3d ed 59 8f bd 87 60 cb 3b
       -0.031357348 0.07440107 -0.06999574 0.0062065753
000040 02 1f 8c bd e4 87 27 3e 51 3c 42 3d 4e 53 12 bd
       -0.06841852 0.16360432 0.047420803 -0.035723977
000050 55 80 9c bd 85 6a a9 3d 3f 9d 62 bd ae d3 7a 3d
       -0.07641665 0.0827227 -0.055325743 0.06123703
000060 dc ba b9 3b 17 7b 15 bd 7e 2e 89 bc 31 1d b2 bd
       0.0056680273 -0.03649434 -0.016745802 -0.08696974
000070 f0 14 9a 3c 06 7b 80 3d dd 85 a5 3d 4e 08 11 3e
       0.018808812 0.06273465 0.08082173 0.14163324
000080 07 d1 95 bd 66 e7 8c bd b5 21 37 bd e9 8b 2e be
       -0.073152594 -0.06880073 -0.04470988 -0.17045559
000090 c7 14 fc bc 9a b3 5c 3d 82 df e9 3c 94 39 b5 3c
       -0.030771626 0.05388222 0.02854896 0.022122182
0000a0 f6 26 ae 3c 87 79 b4 3d 11 d9 ef 3b 71 42 09 3d
       0.021258812 0.08812242 0.0073195775 0.03351063
0000b0 40 90 14 bd b9 ca 51 3d f7 7b 86 3d e1 ca f8 bc
       -0.03627038 0.051218722 0.06566613 -0.030370178
0000c0 89 c5 4a bb 70 9b 4a bd 4e b0 62 3c 8c c8 d8 bc
       -0.0030940494 -0.049464643 0.01383598 -0.026462816
0000d0 ca 0b 02 bb 9d 5e 4f 3c 6c 5b 7a 3d 4a a9 a5 3d
       -0.0019843453 0.012656835 0.061122343 0.0808893
0000e0 da ab ae bd df e7 c0 38 ba 2a 7b bc 6e c5 fa 3c
       -0.08528872 9.198463e-05 -0.015330011 0.03061172
0000f0 15 c1 58 3b c4 fa 7c bd 61 86 87 bc 7e 37 86 bd
       0.003307407 -0.061762586 -0.016543569 -0.06553553
000100 c8 ad 18 3d 98 ba 38 3d e8 c1 c9 3c 5c 6c 4a bd
       0.037275106 0.045099825 0.024628595 -0.049419746
000110 9d d4 eb 3c 90 c9 aa 3c 5a 66 80 3d 5f 67 8f bc
       0.028787905 0.020848066 0.06269522 -0.017505346
000120 47 d3 49 3d fc 35 76 3c 7c 1e 3b bd 1f 3b 04 bd
       0.049273755 0.015027519 -0.04568337 -0.032282945
000130 d5 ee 2a bb 4c b7 08 be 82 8b c3 bc 4b 39 a1 3d
       -0.0026082296 -0.13351172 -0.023870233 0.07872256
000140 81 cb 29 3d 8d 15 cf 3c 3f 39 25 bd 46 1a 0a bd
       0.041453842 0.02527883 -0.040337797 -0.033716463
000150 7f 6c 87 3d 31 09 20 3c 1a 2d f3 bc 95 33 3b 3d
       0.06612491 0.009767816 -0.029684592 0.04570349
000160 b4 bb e1 bc a0 1b 72 bd f4 88 5f bd 7d 31 50 bd
       -0.027555324 -0.059108377 -0.054573968 -0.050828446
000170 ad 36 bb bd f6 e5 cd 3b ef 51 a3 bd e7 d1 a9 3c
       -0.09141288 0.006283517 -0.07974612 0.020729972
000180 e1 41 c2 3d 98 70 49 3d 2f 03 03 bd 2c 53 07 bc
       0.09485222 0.049179643 -0.031985458 -0.008259576
000190 4b 82 52 bc 61 c7 38 3d 73 63 40 3d 83 f2 2b 3d
       -0.012848447 0.045112018 0.046969842 0.041979324
0001a0 f4 20 ce 3b 6b a6 97 3d 41 de 87 bd f9 6d 1f bd
       0.0062905494 0.074047886 -0.066341884 -0.038923237
0001b0 64 79 56 bb 9d 13 75 3d 81 18 04 bd 6c 13 81 bc
       -0.0032726163 0.059833158 -0.03224993 -0.015756331
0001c0 da e8 75 bc 97 52 3d bd ea 0d 94 3d 5c b5 17 bd
       -0.015009129 -0.046221342 0.072292164 -0.037038192
0001d0 b1 c9 c8 3b 49 90 0a bd 4f dd fa bc b9 16 14 bd
       0.006127559 -0.033829007 -0.030623106 -0.036154483
0001e0 f9 bf a3 bd 53 b5 f7 bc 5a 56 b5 bc b3 fa 84 3d
       -0.079956 -0.03023783 -0.022135902 0.064931296
0001f0 9e 8e a2 bb 55 8a 64 3d 28 c5 e4 3b 44 c9 09 bd
       -0.004960849 0.055795986 0.0069815107 -0.033639207
000200 0d 15 45 ba 05 8c ce 3c 21 bd 9a bc 08 3b b6 bd
       -0.00075180904 0.02521325 -0.018889012 -0.08897978
000210 4f d6 d3 bd f3 f2 19 3d f1 5d f6 3c 39 08 01 bc
       -0.103436105 0.03758521 0.030074092 -0.007875496
000220 8e 2e 6a bd f4 f3 49 bc dd 90 15 bb 49 3b 7a 3c
       -0.057173304 -0.012326229 -0.002282194 0.015272924
000230 d7 e9 29 3d aa 6a 80 3d e8 b7 fb 3c 74 e8 c9 3d
       0.041482773 0.062703446 0.030727342 0.0985879
000240 94 f0 28 ba d9 f2 49 bd 5c bf b3 bd b6 c1 9f 3d
       -0.00064445403 -0.049303863 -0.08776733 0.07800619
000250 4f f7 aa bd fe 3b ae 3b 4b d2 a8 3c 0f 55 48 bd
       -0.083479516 0.00531721 0.020608088 -0.048909243
000260 ce 1b d5 bc 06 19 cc 3c 63 4a f7 bd e9 2a 79 3c
       -0.026014235 0.024914276 -0.12074735 0.0152079845
000270 61 e8 cf 3d d2 1b 0e bd d4 3a 13 3c 80 ff 8b 3d
       0.10151745 -0.0346945 0.008986194 0.06835842
000280 01 25 d8 bc fc 8a bd 3c 23 cc 9c 3d 18 d5 a6 bc
       -0.026384832 0.023137562 0.076561235 -0.020365283
000290 3b 72 7f bd dd f2 f3 3b f7 7f 90 3d a2 83 26 3d
       -0.062364798 0.007444723 0.07055657 0.04065288
0002a0 c1 b1 84 bd 92 4b c8 3a 4c 97 81 3d c0 61 67 3d
       -0.06479216 0.0015281311 0.06327686 0.056489706
0002b0 a7 e5 39 bd 5c 47 9b bd dc 67 06 bc ac 0c 80 bd
       -0.04538503 -0.0758197 -0.008203473 -0.06252417
0002c0 a0 c6 f2 bd 01 73 f9 bc dc c7 bb bd 65 6e 46 3d
       -0.11854291 -0.030450346 -0.091689795 0.048445124
0002d0 84 6d 5a 3b a0 53 05 bc a1 a0 4d bb 32 e1 5a 3d
       0.0033329437 -0.008137614 -0.003137626 0.05343742
0002e0 7a 9e b8 bb 84 c8 1e be 46 72 a3 bd 46 b7 fb 3c
       -0.0056341263 -0.15506178 -0.0798078 0.03072704
0002f0 a5 36 1d 3d 5f 58 6f 3d 52 f4 d5 3c 3e 21 cc bd
       0.03838219 0.058433887 0.026117478 -0.09967278
000300 65 79 d3 3b 89 d5 84 bd 1d 94 5a bd 07 e3 c2 ba
       0.0064536803 -0.06486041 -0.053363908 -0.0014868685
000310 49 b1 fb 3c 8a 37 55 bd 18 d7 13 3d 1e 9e 2a bd
       0.030724185 -0.05205492 0.0360938 -0.0416547
000320 90 b5 df bc bc 51 de bc f9 73 c6 bd 79 58 12 bc
       -0.027308255 -0.027138583 -0.09690089 -0.008932226
000330 6d c5 2d bd b4 f5 d9 3d 72 f8 1c bd 0c 75 b3 bd
       -0.042424608 0.10642567 -0.038322873 -0.08762559
000340 de 4b 55 3c a1 24 a5 bc bc 71 cd 3d 5e ae a9 bb
       0.013018576 -0.020159068 0.10031459 -0.005178257
000350 24 8b 76 bd fd d8 e5 bd b4 88 91 3c b8 12 45 3d
       -0.06019129 -0.11223028 0.01776538 0.048113555
000360 3a ad 4c bd a0 df 46 3e 03 37 b5 bc b7 18 b2 3c
       -0.04996989 0.19421244 -0.022120958 0.0217403
000370 6b 1e ec 3b bf ca 0c bd ee 94 fd 3c f7 91 98 bd
       0.0072057745 -0.03437304 0.030954804 -0.074497156
000380 6d c5 99 3c 42 a2 12 bd 3c 0e 68 3d 7a fe 3a bd
       0.018770898 -0.035799272 0.0566542 -0.045652844
000390 06 7a 00 bd 65 7e a3 3c e2 97 a9 3b 40 7c 91 bd
       -0.03136637 0.01995773 0.0051755765 -0.07103777
0003a0 ab 97 9b bb 7d ca bc bc ee 78 a3 bc 1f 45 98 bc
       -0.004748305 -0.023045773 -0.019955125 -0.018587647
0003b0 86 7b 1a bb bd cc 51 3c 95 9a 20 bd cf 85 a2 bc
       -0.002357216 0.012805161 -0.03920992 -0.019839196
0003c0 16 8b a1 3b 57 ed 3d bc c2 ce 50 bd 3d 3c 0d bc
       0.0049299104 -0.011592231 -0.05097843 -0.008620319
0003d0 11 c7 58 bd e8 6a 82 3b 8c b3 90 3d a0 e0 9a 3d
       -0.05292422 0.0039800294 0.07065496 0.07562375
0003e0 c0 93 4d 3d 0d ef 37 bd c5 60 53 bc 27 92 1e 3d
       0.050189734 -0.04490571 -0.01290149 0.0387136
0003f0 fc 03 9e bc b4 37 4f b9 a3 2b 61 3d 76 01 39 3d
       -0.01928901 -0.0001976181 0.054973256 0.04516741

mlp.0.bias f4 [64]
000000 75 bb 90 bc 61 2a 13 3e 83 ad 62 bd ac f9 17 bd
       -0.017667511 0.14371635 -0.055341255 -0.03710334
000010 94 26 38 3e 6f 8f 8f bd 1c 9e d9 bd 31 4d b0 3b
       0.17983466 -0.0700978 -0.1062586 0.0053802957
000020 12 d4 ba bd 70 1b c2 3d 32 08 90 3d c2 f6 0c 3d
       -0.091224805 0.094778895 0.07032813 0.034415014
000030 fa e7 17 be 16 f9 24 bc 4a 40 7c bd 6d 01 89 3d
       -0.14834586 -0.010069152 -0.06158475 0.06689725
000040 1b 09 90 3d 2f 10 6d bc fb ae c2 3b 53 09 fa bd
       0.07032987 -0.0144691905 0.0059412695 -0.1220881
000050 04 a0 25 bd 56 f9 90 3d e5 92 4c 3d e0 de 68 bd
       -0.040435806 0.07078807 0.049944777 -0.056853175
000060 2c 0e db bc 78 97 81 bd 31 9d 74 3d a5 4d b2 bb
       -0.026740156 -0.063277185 0.059720222 -0.005441385
000070 eb a6 4a 3d 48 65 c3 bc 9f 93 3a 3a cd 55 09 3d
       0.04947559 -0.023852006 0.0007117334 0.03352909
000080 fa 02 e9 3c ed 13 de 3d b0 74 f1 bc 4c 8b 57 bc
       0.028443802 0.10843644 -0.029474586 -0.01315577
000090 f1 f2 18 bd 0a ed ec bc 04 22 9a 3d cb 93 d7 bd
       -0.037341062 -0.028921623 0.07526019 -0.10526236
0000a0 51 be b8 bc 3e 77 d1 bc fb cc f5 bc e5 82 5b bd
       -0.022551687 -0.025569554 -0.030004969 -0.053591628
0000b0 56 05 47 3d 61 dd 44 3d 2c 1d bd 3d 75 f7 a8 bd
       0.048589073 0.048062686 0.0923408 -0.08250324
0000c0 66 74 47 bd ea b3 cb bd 12 41 51 3d b6 79 70 bd
       -0.04869499 -0.09946425 0.051087447 -0.058709823
0000d0 08 c2 c5 3d e9 0b d6 3d 2b c8 18 3b 86 15 12 3c
       0.09656149 0.104514904 0.0023312669 0.008916264
0000e0 27 c3 e4 bc 21 9c e6 bc d8 4b a1 bc 6e 6e a4 bb
       -0.027925087 -0.02815062 -0.019689485 -0.005018047
0000f0 45 7d d0 bd e9 79 11 3e 2b db 85 3d c3 32 93 bc
       -0.10180143 0.14206661 0.065359436 -0.017968541

mlp.2.weight f4 [64]
000000 2c 63 82 3f fa 8a 7a 3f ed 4d 7e 3f d2 2b 6d 3f
       1.0186515 0.9786831 0.99337655 0.9264499
000010 bd 36 75 3f a6 b2 80 3f 9f a3 82 3f 3f db 6f 3f
       0.9578665 1.0054519 1.0206183 0.9369392
000020 65 9e 85 3f 1a 3d 7a 3f f6 95 81 3f 20 72 70 3f
       1.0438963 0.97749484 1.012389 0.9392414
000030 65 16 84 3f ce 44 81 3f 79 38 7f 3f 93 a8 73 3f
       1.0319334 1.0099123 0.99695545 0.951791
000040 ef 6e 65 3f 23 74 74 3f 71 70 7b 3f 7d b0 81 3f
       0.89622396 0.9548971 0.98218447 1.0131985
000050 6c 9a 8a 3f 20 1c 80 3f cc 23 7a 3f 94 d1 6f 3f
       1.0828376 1.0008583 0.9771087 0.93679166
000060 16 e6 6b 3f 44 47 75 3f 1c 5e 8b 3f 45 56 84 3f
       0.9214796 0.9581187 1.0888095 1.0338827
000070 8a 6e 80 3f 2d c8 7e 3f 00 c1 5c 3f e8 47 7e 3f
       1.0033734 0.99524194 0.86231995 0.9932847
000080 be 4d 81 3f 12 12 7c 3f 06 13 82 3f 86 25 7d 3f
       1.010185 0.98465073 1.0162055 0.9888538
000090 dc 57 76 3f 07 ea 7c 3f 97 48 77 3f fc a7 6e 3f
       0.9622781 0.987946 0.9659514 0.93225074
0000a0 a1 3c 7b 3f e0 02 79 3f f4 52 75 3f 96 0b 71 3f
       0.9813939 0.9727001 0.958297 0.94158304
0000b0 51 06 83 3f 8f f8 84 3f 46 33 70 3f 2a 00 80 3f
       1.0236303 1.0388354 0.9382824 1.000005
0000c0 62 49 85 3f 9e 03 8d 3f 66 48 8d 3f 54 35 82 3f
       1.041302 1.1016729 1.1037719 1.0172524
0000d0 b1 31 85 3f 14 41 81 3f 3f 45 78 3f 87 50 82 3f
       1.040579 1.0097985 0.9698066 1.0180825
0000e0 04 f5 68 3f d9 00 68 3f aa 6c 79 3f 86 48 65 3f
       0.90998864 0.90626293 0.97431433 0.89563787
0000f0 54 79 66 3f 04 e4 7d 3f f1 59 78 3f c3 25 85 3f
       0.9002888 0.9917605 0.9701224 1.0402149

mlp.2.bias f4 [64]
000000 54 9a 09 bc 34 26 03 bd d3 62 d4 3c 65 11 ef 3c
       -0.008398611 -0.032018855 0.02592603 0.029183099
000010 06 16 53 3b d0 0d 00 3d ff 4f 10 bd f2 dd 43 bd
       0.0032209172 0.031263173 -0.03523254 -0.047819085
000020 2b b9 37 bc 23 fd 0e 3c 7b 03 2c 3d 0a 6b 21 3d
       -0.011213581 0.008727345 0.041995507 0.03940872
000030 e5 33 67 b9 44 bb 47 bb c6 5f f8 3c 43 5b 0b 3d
       -0.00022049209 -0.003047661 0.030319106 0.03402258
000040 d6 60 ab 3c 5e 7d eb bb 49 fb 95 3c 26 49 96 bc
       0.020920198 -0.007186576 0.018308299 -0.018345427
000050 01 df cc 3c fa 6a 21 3d a4 cb b3 3d 3d 17 8f bc
       0.02500868 0.03940866 0.08779076 -0.017467136
000060 f0 5f 3f 3d 2d b8 e9 bc 71 6d 51 bc 8b 36 56 3d
       0.046722353 -0.028530205 -0.0127824405 0.05229811
000070 f6 1d 26 3d 85 96 8e 3d 73 1c 4c 3c a7 ad 71 bd
       0.040555917 0.06962303 0.012457955 -0.0590035
000080 1d b6 42 3d a8 ef 48 3c e2 94 8e bc 41 2a cb bd
       0.047536958 0.01226417 -0.017404977 -0.09920169
000090 f9 51 1b 3d ea 2a cc 3c 97 19 0c 3c 34 3d 9f bc
       0.037919972 0.024922807 0.008551023 -0.019438364
0000a0 31 97 60 bd 8a 9a 90 3d ed 28 c7 3c 25 c2 fb bc
       -0.054831687 0.07060726 0.024311507 -0.030732224
0000b0 28 de 9e ba 72 fa 5e bc 26 36 c8 3c 9e 82 0a 3d
       -0.0012120651 -0.0136095155 0.024439882 0.033815973
0000c0 b5 a9 2d bc 33 dc 1e 3d 54 c5 17 bd 16 6f 82 bc
       -0.010599543 0.038784217 -0.03705342 -0.01592211
0000d0 12 84 0b bc 1c cd d9 3b 8b a4 36 bd 8d e9 d4 bd
       -0.008515375 0.0066467654 -0.044590514 -0.10396109
0000e0 be c7 29 3c 08 d8 b0 bd ef 61 d1 bb 4b 4f af 3c
       0.010362564 -0.08634955 -0.0063898484 0.021400115
0000f0 c2 dc 71 3d b9 d1 df bb 7e bd 3d bb b0 36 d9 bc
       0.05904842 -0.006830421 -0.0028952057 -0.026515335

mlp.2.running_mean f4 [64]
000000 d9 51 50 bb 54 57 58 be 25 b8 9b be f8 cf b9 3d
       -0.0031787066 -0.21127063 -0.3041393 0.0907287
000010 aa 92 44 be ca 56 4b be 4b 8b 8b 3e b8 16 55 3d
       -0.19196573 -0.19857326 0.2725471 0.05202362
000020 d2 c2 15 3f 12 ff 81 3e f5 b6 61 be 39 9d b5 3e
       0.585004 0.25389916 -0.22042449 0.35471514
000030 61 02 26 be 1a 93 49 bc 58 77 c5 be bd c8 61 bd
       -0.16211845 -0.012303138 -0.38567615 -0.05512308
000040 37 de 49 3e 67 a4 94 be d7 6b d4 be c2 cf 1b be
       0.19713674 -0.2903168 -0.41488525 -0.15215972
000050 26 b7 97 be 36 9e 1b 3d 15 bd 04 3f 4a fe 86 be
       -0.2963192 0.03799268 0.51851016 -0.26365882
000060 a9 37 4a 3e 17 23 24 3e 82 85 d3 3e bc 37 35 3d
       0.19747795 0.1602901 0.41312796 0.044242606
000070 77 5d 93 be 67 15 a0 3d e0 db cf 3e 5f 9b c9 3d
       -0.28782246 0.07816582 0.4059744 0.09844088
000080 8d 58 88 3e c8 a3 35 3e 15 a4 2d be 04 5a 19 3e
       0.2663006 0.17738259 -0.16957124 0.14975744
000090 7e 94 e0 be 2a 4a 1f 3e c6 e2 cb 3e 87 2c 38 be
       -0.4386329 0.15555635 0.39821452 -0.17985736
0000a0 c0 6a e7 3d c9 26 3e ba 8d c7 4a 3e ad 5d d7 be
       0.11299658 -0.0007253704 0.19802685 -0.42063656
0000b0 09 94 93 3e 13 bd 16 be 62 5c e3 bc 65 bd 6b be
       0.2882388 -0.14720564 -0.027754012 -0.23021467
0000c0 0a f3 b3 3d ae 83 87 be 68 ab ec be 75 f7 4a be
       0.087865904 -0.2646765 -0.46224523 -0.1982096
0000d0 8b a8 2e 3e 20 39 2a 3d f0 f0 fb bc 73 06 03 3f
       0.17056482 0.041558385 -0.030754536 0.51181716
0000e0 de 56 9c be dc de fd bd 8b cb c3 3c c0 de 02 be
       -0.30535024 -0.12396023 0.023900768 -0.12780285
0000f0 f9 d0 b0 be 40 2d 7b bd 9c 5a 44 be a0 f6 5c be
       -0.34534433 -0.06132245 -0.1917519 -0.21578455

mlp.2.running_var f4 [64]
000000 21 7b c6 3c 59 43 9c 3c 46 b6 0b 3d af 17 1d 3d
       0.024228634 0.019075083 0.034109376 0.038352665
000010 04 a9 e7 3c a2 a0 1c 3d 58 bf 14 3d b0 9d b1 3c
       0.028278835 0.03823913 0.036315292 0.021681637
000020 5c 85 d0 3c 84 74 e4 3c 5b ea 2b 3d 55 b6 ac 3c
       0.025454216 0.02788759 0.041971546 0.021083036
000030 03 a5 aa 3c 58 78 ff 3c 2d 32 c6 3c 25 73 3b 3d
       0.020830637 0.031185314 0.024193848 0.045764107
000040 e6 4e 00 3d 4c 7d fa 3c bf 44 22 3d 0c 1a e4 3c
       0.031325243 0.030577324 0.039616343 0.027844451
000050 1b 0c d5 3c 83 56 47 3d 35 52 a6 3c a3 84 1c 3d
       0.026006749 0.04866649 0.020302871 0.03821243
000060 db b9 05 3d 33 07 20 3d ec fc 2b 3d cf 70 ec 3c
       0.03264795 0.039069366 0.041989252 0.028862385
000070 a7 fc 12 3d eb 3f f4 3c f9 92 09 3d 14 e0 dc 3c
       0.03588548 0.029815635 0.03358743 0.026962318
000080 bb 12 f8 3c 11 a3 38 3d e0 1a fb 3c fc 4c c5 3c
       0.030282369 0.045077387 0.030652463 0.02408456
000090 b8 54 c3 3c 0f 1d d7 3c 6b 36 02 3d c8 72 19 3d
       0.023844108 0.026258973 0.03179018 0.03746298
0000a0 1b 2e fc 3c 87 5a d7 3c 87 de e2 3c 2f bb 86 3c
       0.030783704 0.026288284 0.027694 0.016446678
0000b0 8d 71 dc 3c a4 fc 2d 3d 55 10 43 3d 9f 60 00 3d
       0.026909614 0.042477265 0.047622997 0.031342145
0000c0 f2 8f 3b 3d 83 d4 7c 3d 4c 68 18 3d 9d 28 ef 3c
       0.045791574 0.061726104 0.03720884 0.02919417
0000d0 9e 6f 37 3d 58 f1 62 3d 1a 8b 00 3d 84 fe 00 3d
       0.04478418 0.055405945 0.031382658 0.031492725
0000e0 86 33 e5 3c e2 90 34 3d e2 28 10 3d d5 fc 11 3d
       0.02797867 0.044083484 0.03519524 0.03564151
0000f0 52 6c 25 3d 0b 83 16 3d de 0b 35 3d 31 10 a2 3c
       0.040386505 0.036746066 0.04420077 0.019783111

mlp.3.weight f4 [64, 64]
000000 42 0b a0 3d aa 10 67 bd 3b 0d 80 3d 4c 2c 94 3d
       0.07814647 -0.056412376 0.062525235 0.072350115
000010 34 69 a1 3c d3 45 fb bd 61 a4 e5 bc bf 11 d8 bd
       0.019703485 -0.12269177 -0.028032484 -0.1055026
000020 1a d8 5c bd e4 15 c2 bd d3 c4 8b 3c 37 67 8b 3d
       -0.053917028 -0.094768316 0.017061627 0.06806796
000030 d4 6d 83 3d 0d 67 24 3d 23 f8 a5 3d 8c 07 21 bd
       0.064174324 0.04013734 0.08103969 -0.039313838
000040 83 90 4c 3d b9 a8 e8 3d 7b dc 0b bd 33 14 8b bc
       0.049942505 0.11360306 -0.034145813 -0.016977405
000050 cd 65 1e bd 38 1c e8 3b 87 13 d2 bd ca 9a 8d bc
       -0.038671304 0.007083442 -0.10257631 -0.017285723
000060 b8 e1 55 3d 33 11 a8 3c b6 7a d6 bd 07 95 04 3e
       0.052217215 0.020516014 -0.10472624 0.12947474
000070 5a 65 af bc b8 6f 77 bd 8f 16 a2 bd 19 20 0d 3e
       -0.021410633 -0.060409278 -0.07914459 0.13781776
000080 40 57 a7 bd a1 65 67 3c 0a 26 68 3c 23 06 83 3c
       -0.081709385 0.014123351 0.0141692255 0.015994137
000090 58 cb b7 bd 02 44 09 bb e0 43 ab bb b4 c2 83 bd
       -0.089743316 -0.0020945077 -0.005226597 -0.06433621
0000a0 e4 63 56 3d 7a 68 cd bd 96 7c a9 bd e3 4e 16 bd
       0.052341357 -0.10029693 -0.08275716 -0.036696326
0000b0 9b 1c 1f 3d 67 5d 6a 3d 3f 28 b3 bd 44 62 88 bd
       0.03884564 0.05721798 -0.08747911 -0.06659368
0000c0 0e 06 54 3d ee a5 91 bd ad 39 2c bd 00 60 72 3d
       0.051763587 -0.07111727 -0.04204719 0.059173584
0000d0 be 7f 9b bd 0a ad f8 3d 49 b0 2d bd 3a b2 6f 3d
       -0.07592724 0.121423796 -0.042404447 0.05851958
0000e0 42 3a 93 bd c9 8f d4 3c 97 31 66 bd 9f ab 80 bd
       -0.07188846 0.025947468 -0.056199636 -0.06282734
0000f0 fd 33 5f 3d 2b bd bb 3d e6 38 10 be 72 0b 15 3d
       0.05449294 0.0916694 -0.14084205 0.03638787
000100 96 3b eb 3c d6 c5 98 bc b7 9c 31 3d 62 0d b2 3d
       0.028714936 -0.018649023 0.043362346 0.08693959
000110 2b 7c 56 3c 5d ec 03 bd 36 2c 9e bd 3b ca 0c be
       0.013091127 -0.032207835 -0.07723276 -0.1374902
000120 eb fc 99 3d b6 9c c8 bd 0a 54 01 3d 0d 21 aa bc
       0.075189434 -0.09795515 0.031574287 -0.020767713
000130 0d 7c 95 3d 47 a5 41 3d d4 9f a5 3a e1 85 e9 bd
       0.072990514 0.04727676 0.0012636133 -0.114024885
000140 a9 b2 a4 3c db 0c ea 3d 7e 9f 8d bc 5d da e3 bc
       0.020104723 0.11428233 -0.017287966 -0.027814085
000150 19 c7 95 bd e4 4c 2d bb 9c 83 d9 bd c6 e0 92 bd
       -0.073133655 -0.0026443535 -0.106208056 -0.071717784
000160 8c 15 12 3c 09 93 a4 3c b1 f5 99 bd 77 80 98 3d
       0.00891627 0.020089643 -0.07517565 0.07446378
000170 53 a7 36 bd e0 7e d0 bd ba 4f d9 bd 90 99 a6 3d
       -0.044593167 -0.101804495 -0.1061091 0.081347585
000180 5e ed 01 be 02 d4 0d 3d fd 1c b8 3d aa 33 fa 3c
       -0.12688205 0.034626015 0.08989904 0.030542213
000190 83 1e 73 ba c4 3b ca 3d bf 33 96 bd c0 59 a7 bd
       -0.0009274261 0.09874681 -0.073340885 -0.08171415
0001a0 96 67 c9 3d a3 de 6d bd 4b 51 1c 3c ad bb 45 bd
       0.098342106 -0.05807365 0.009540866 -0.048274685
0001b0 62 88 a0 bd 01 1c b3 3d dc 86 28 bd 74 0e 89 bc
       -0.07838513 0.08745576 -0.041144237 -0.016730525
0001c0 7e 77 dc 3d 69 4d 67 bd 8b 9d 19 be 7a 99 47 3c
       0.10764979 -0.05647031 -0.15001504 0.012182588
0001d0 b4 e7 17 be cb 13 86 3d ff fd 74 bd cb b0 77 bd
       -0.14834481 0.06546744 -0.059812542 -0.060471337
0001e0 64 de c5 bd 12 ef 9d 3d 90 7b bb bd c7 20 02 bd
       -0.09661558 0.07711615 -0.09154427 -0.03176954
0001f0 5f d1 a7 3d 43 e0 7b bc 8d 7e 91 bd df 7b 0d 3d
       0.08194231 -0.015373292 -0.07104216 0.03454196
000200 5a 3c d8 bc f8 e0 88 3d 55 c4 85 bc 5a 5b d2 bd
       -0.026395965 0.066835344 -0.01632897 -0.1027133
000210 3b bb 88 bc 00 7d 8f 3d 4e 2b 5b 3d 32 25 96 3d
       -0.016690841 0.07006264 0.053508095 0.07331313
000220 54 da 9c 3b d6 29 11 3d b1 75 86 bd 74 23 a8 3b
       0.004786769 0.03544029 -0.065654166 0.0051311795
000230 19 57 0d be 16 82 2c bd 84 fc b2 bd 98 aa 8a 3d
       -0.13802756 -0.042116247 -0.0873957 0.067708194
000240 f7 8e 07 3d 73 70 3a 3d 87 fd 51 3d 6e ae 84 3d
       0.033095326 0.045517396 0.051267173 0.06478582
000250 62 cf 14 3d 73 9d 14 bd 3b 57 49 bc 91 e8 7c 3d
       0.03633059 -0.036282968 -0.012288864 0.06174523
000260 65 c4 c1 bb a6 f7 91 3d 72 27 38 3d 9b 94 bb 3c
       -0.0059133046 0.07127313 0.044959493 0.022898009
000270 73 d9 bc 3a cc b3 08 3d 49 03 cd 3c 63 42 b0 3c
       0.0014408067 0.033374593 0.02502598 0.02151603
000280 a7 39 53 3d 7f 5b 67 bd 60 08 91 bd 23 c6 17 bc
       0.051568653 -0.05648374 -0.070816755 -0.009263548
000290 03 5c 55 bb 5c bb b4 3d cc a5 53 bd c6 bd 39 bd
       -0.0032556064 0.088247985 -0.051671788 -0.045346998
0002a0 7d 1e 3c bd 34 cc 36 3d be 7d 46 bd cf b1 fe ba
       -0.045927513 0.044628337 -0.04845976 -0.0019431653
0002b0 c3 5e d2 3d c1 f9 90 3c 25 c6 74 3d be 3c 47 3d
       0.102719806 0.017697217 0.059759278 0.048641913
0002c0 59 0c c2 bc ea 5d fa bd e7 c1 d1 3c 30 3a 0b 3c
       -0.023687528 -0.12224944 0.025605155 0.00849776
0002d0 17 3c 8b 3d 14 49 91 bd ee 29 80 3d 9a f8 e9 3d
       0.067985706 -0.07094017 0.062579975 0.1142437
0002e0 e7 72 cd 3d 00 79 a5 3d 64 42 cf 3d a6 3d b2 3d
       0.100316815 0.080797195 0.10120085 0.08703165
0002f0 45 93 d7 bc 7a bb d7 bd 73 ba 72 3d 6e 9c 83 bd
       -0.02631534 -0.10533805 0.059259843 -0.06426321
000300 f8 6a 63 bd 59 b8 00 3d c6 98 1d 3d 8e b1 6f bd
       -0.055521935 0.031425808 0.038475774 -0.05851894
000310 3d 28 59 3b b5 e7 4c 3d 36 38 9b 3d ff 35 17 3e
       0.0033135556 0.05002566 0.07579081 0.14766692
000320 14 ba 9b 3c 80 08 b0 3d ed a9 9f bc ef f9 1d bd
       0.019009627 0.08595371 -0.019490207 -0.038568433
000330 93 49 07 be 1f 3f 04 bd 28 f4 51 bd f3 54 9b 3c
       -0.1321166 -0.03228676 -0.051258236 0.018961405
000340 d8 81 64 3d ff 60 27 bb 55 1d 30 bd 28 26 2a bd
       0.05578789 -0.0025539992 -0.042996723 -0.041540295
000350 e2 f9 a4 3d 49 d9 08 be af be 87 bd ec 8f 54 3d
       0.08055474 -0.13364138 -0.06628167 0.051895067
000360 03 6e 10 3e 39 2c eb 3d 04 87 c4 3c 86 0e a2 bc
       0.14104466 0.11483044 0.023990162 -0.019782316
000370 43 74 07 bb 4a a3 9e 3d df 1f 88 bc 0c 4e 03 3d
       -0.0020668663 0.07745989 -0.01661676 0.032056853
000380 42 30 08 3d 0e 9d 33 bd ea 41 33 bc fa 50 2d 3d
       0.033249147 -0.04385095 -0.010941008 0.042313553
000390 b4 9b 54 bd 9b b9 ae 3b 08 67 db bd d4 56 89 bd
       -0.051906303 0.0053321845 -0.10713011 -0.06706014
0003a0 00 3a 8f bd 07 70 76 bd f8 f0 73 3c 81 7e d2 3d
       -0.069934845 -0.06016543 0.014888994 0.10278035
0003b0 d1 a4 da 3d 77 7d 99 3d c3 1b b3 3d d1 e2 93 3d
       0.106759675 0.07494634 0.087455295 0.07220996
0003c0 e9 4c fe 3c 84 3b d2 bd 68 52 be bd 19 11 f7 bc
       0.031042533 -0.10265258 -0.092930615 -0.03015952
0003d0 60 1d d3 bb 5e e7 3b bd dc 53 89 3d 31 bb a1 3d
       -0.0064427108 -0.045874946 0.06705448 0.07897032
0003e0 ff 0a 8e 3d c2 c0 f7 3d c0 b4 0b 3e e0 34 8f 3d
       0.06935691 0.120973125 0.1364317 0.06992507
0003f0 55 4d 06 bd 72 80 e1 bd 9f a7 8e 3d aa d0 bc bc
       -0.032788593 -0.11010827 0.06965565 -0.023048718

mlp.3.bias f4 [64]
000000 47 62 f8 3a 1e d5 64 3d ee 2d 42 bc 08 a9 c3 bd
       0.0018950187 0.055867307 -0.011851771 -0.095537245
000010 32 3c ab 3d 41 ef 59 bd fa e3 7a 3d 98 54 ff bc
       0.08361091 -0.053206686 0.06125257 -0.031168267
000020 9d 67 3b 3d 81 cc a6 bd 6a 86 63 bc a6 e8 c3 3d
       0.04575311 -0.08144475 -0.013887027 0.095658585
000030 4f e5 dd bd 68 be 77 3d 39 03 b1 bd 34 28 d8 3d
       -0.10834753 0.06048432 -0.08643193 0.10554543
000040 fe 53 10 bc d4 10 24 3e 58 62 a1 bd 3a 4b 4d bd
       -0.008809088 0.16022044 -0.07880086 -0.05012057
000050 a1 36 d5 bb fc ed e5 bc 16 f6 c5 3d 36 30 22 bc
       -0.0065067564 -0.028067581 0.09666078 -0.00989919
000060 f1 8f cb bd d6 ac 78 3d 40 a2 a2 bd 4e 99 f2 3d
       -0.09939564 0.060711704 -0.07941103 0.11845647
000070 97 b6 bd bc 08 f2 aa 3d 97 53 34 3c 60 35 0f 3c
       -0.023158355 0.08346945 0.0110062575 0.008740753
000080 70 bf 62 bd 97 25 90 3d 33 b5 bb 3d 65 b3 af bd
       -0.05535835 0.0703842 0.091654204 -0.08579139
000090 dd f3 75 3d 76 9c ab bd f1 3a b1 3d 55 4f 23 bc
       0.06004702 -0.08379452 0.0865382 -0.009967645
0000a0 4d 0f b0 3d aa 91 76 bd e7 bc 41 bc 90 8e 9f bd
       0.085966684 -0.06019751 -0.011824823 -0.077908635
0000b0 bf f5 2a be eb af 3e 3c 6b ce 98 3d 05 8a b7 3d
       -0.16695307 0.011638622 0.07461246 0.08961872
0000c0 32 05 6e 3d 26 55 28 bd 09 c6 ac bd da e8 50 3d
       0.058110423 -0.04109683 -0.0843621 0.051003315
0000d0 6c 4b 6d bd e0 8c b1 bd 62 8d f9 ba 2d 01 33 3d
       -0.057933256 -0.08669448 -0.0019039328 0.043702293
0000e0 50 6f 79 bd cb 29 08 be a8 12 b3 bd e2 24 e0 bc
       -0.06089717 -0.13297193 -0.08743793 -0.027361337
0000f0 f5 d6 47 bd d9 88 f6 3d 5b 8b 60 bd 3d a3 10 be
       -0.048788983 0.1203782 -0.0548204 -0.1412477

mlp.5.weight f4 [64]
000000 46 35 67 3f a7 3a 6a 3f dd 47 87 3f 3d 12 70 3f
       0.90315664 0.91495746 1.0568806 0.9377783
000010 7e 2f 83 3f 57 db 82 3f be 4a 89 3f b6 8e 79 3f
       1.0248868 1.0223187 1.0725935 0.97483385
000020 b0 9d 84 3f 1b 51 65 3f 92 98 7a 3f 84 13 88 3f
       1.0360622 0.8957688 0.97889054 1.0630956
000030 be 7f 8b 3f 0f dd 74 3f c4 17 80 3f a0 bb 92 3f
       1.0898359 0.9564981 1.0007253 1.1463509
000040 a7 8c 6e 3f af 34 7e 3f d5 4e 83 3f 6d 2d 88 3f
       0.9318337 0.9929914 1.0258433 1.0638863
000050 5e 92 88 3f 0b 6f 70 3f 96 11 8a 3f d5 a6 7e 3f
       1.0669668 0.9391944 1.0786617 0.99473315
000060 c8 0e 76 3f 75 cd 81 3f e6 9a 88 3f 12 7b 8c 3f
       0.96116304 1.0140826 1.0672271 1.0975058
000070 53 2a 85 3f 05 34 81 3f b6 a7 86 3f c5 03 8b 3f
       1.0403541 1.0094 1.0519931 1.0860525
000080 84 f5 80 3f bf 13 81 3f 88 7e 83 3f 8f 10 80 3f
       1.0074925 1.0084151 1.0272989 1.0005053
000090 33 ad 89 3f f0 5e 80 3f 89 29 85 3f 84 f3 88 3f
       1.0755981 1.0028973 1.04033 1.0699315
0000a0 e4 1f 89 3f 00 42 86 3f 96 7f 75 3f e2 50 85 3f
       1.0712857 1.0488892 0.95897806 1.0415308
0000b0 e0 59 88 3f 90 7d 93 3f 15 57 81 3f 19 ca 8a 3f
       1.0652428 1.1522694 1.01047 1.0842925
0000c0 02 0d 82 3f a1 92 80 3f e8 7f 84 3f 69 3d 71 3f
       1.016022 1.0044748 1.0351534 0.9423433
0000d0 2c 5a 91 3f 2c 8f 80 3f a4 62 7e 3f e7 de 77 3f
       1.1355643 1.0043693 0.99369264 0.96824497
0000e0 9c ba 76 3f 07 a9 8a 3f 18 62 73 3f ed 1f 72 3f
       0.96378493 1.0832833 0.95071554 0.94579965
0000f0 e6 a5 84 3f c1 12 66 3f 43 fa 88 3f 38 50 86 3f
       1.0363128 0.89872366 1.0701374 1.0493231

mlp.5.bias f4 [64]
000000 2b 28 3b bc 45 6d be bc 8a 94 05 bd 0f 7d 1a 3d
       -0.011423151 -0.023245463 -0.03261236 0.03771692
000010 5d 48 85 bb 6d a8 f6 3b d3 04 98 3c 9e 35 06 3c
       -0.0040674643 0.007527402 0.018556988 0.008191494
000020 57 af 57 3b 81 e8 a5 3c 20 a0 cc bb 5f 52 af b9
       0.0032910907 0.020252468 -0.0062446743 -0.00033439972
000030 bd f7 2c 3d 5d 5b ef 3b a5 c9 d3 3c 08 25 21 bd
       0.04222845 0.0073045925 0.025852988 -0.039341956
000040 de de f4 3b a5 94 09 bd 1e 1e f7 3c ba 85 2e 3d
       0.007472857 -0.033589024 0.030165728 0.042608
000050 7e b3 e8 3b 04 11 f1 3c 7c c9 5d 3c f2 ff 32 3c
       0.0071014753 0.029427059 0.013536807 0.01092528
000060 5a 29 d0 3c 2c a5 be bc 3e fd 84 3b 01 df 83 bc
       0.025410343 -0.02327212 0.004058509 -0.016097547
000070 46 86 95 bc 53 52 51 bd 01 e8 98 3c 8a 2a 99 3c
       -0.018252503 -0.0511039 0.018665316 0.018697042
000080 74 17 ae bc 24 99 a9 bc f8 ad c9 ba eb 52 60 3c
       -0.021251418 -0.020702906 -0.001538693 0.013691644
000090 a2 fc c3 bc a0 03 fb 3c bd 43 24 bd e8 72 2d 3b
       -0.023924176 0.030641377 -0.040103663 0.0026466195
0000a0 6c 49 a1 3c 46 1e b4 3b 0c 2c c9 3c ea b5 c9 3c
       0.01968833 0.005496773 0.024557136 0.024622876
0000b0 8b d3 a0 bb 78 59 93 bb 28 34 a7 38 32 33 c3 bb
       -0.0049080304 -0.0044967495 7.9728954e-05 -0.0059570307
0000c0 01 5b 97 bc 75 05 6d bb f5 b2 70 3b 5c 0f d1 3a
       -0.018476011 -0.0036166583 0.003672776 0.0015950012
0000d0 47 f7 93 bb a5 fd b2 3c 8a a7 ab 3c 09 6e 94 3a
       -0.0045155617 0.021849463 0.020953912 0.0011324297
0000e0 4d 95 b1 bc 3c ba 39 3c b8 35 46 3c 96 5c b7 3c
       -0.021677637 0.011335906 0.0120977685 0.022383016
0000f0 2b cb 35 3b f1 9f 66 bb a8 94 a7 3b e9 2a 9c 3b
       0.0027739506 -0.0035190547 0.0051141568 0.0047658575

mlp.5.running_mean f4 [64]
000000 68 fb f1 bc b1 73 e9 3c d6 66 07 bd c8 a0 ef bd
       -0.029538825 0.028497549 -0.033057056 -0.117005885
000010 3b 3a c5 3d 6d 5a 82 bd c8 c8 79 3d 99 1e aa bd
       0.09630247 -0.063649036 0.060982496 -0.08306617
000020 17 6c 22 3c 1e 16 a6 bc ea d0 40 bd 72 9b 83 3d
       0.009913466 -0.020274218 -0.047074236 0.06426133
000030 f3 ef 89 bd ea f5 ce 3d 79 77 fc bc ae 19 f7 3d
       -0.0673522 0.10105498 -0.030818688 0.12065445
000040 4c 7c 3c bc f3 d6 a7 3d 50 f4 5f bb b6 2d 53 3c
       -0.011504244 0.08195295 -0.0034172721 0.012889316
000050 23 66 bd 3c 8e d4 39 3d ef e4 dd 3d 80 19 c5 3a
       0.023119992 0.045368724 0.10834681 0.0015037507
000060 71 20 87 bd f0 30 8b 3d f9 cb 4e bd 0d 9d f1 3d
       -0.065979846 0.067964435 -0.050487492 0.11797533
000070 53 dd 23 bd f4 43 44 3d 11 8b 08 bc 28 64 2f 3d
       -0.040005993 0.047916368 -0.008333937 0.042820126
000080 d3 6b 3b bd 1d 9e df 3c 9f 7c c0 3d 71 68 9a bd
       -0.045757126 0.027297074 0.093987696 -0.07539452
000090 a8 59 73 3d 8f f9 9a bd 5b 2e 1f 3d cd 03 f4 3b
       0.059411675 -0.07567131 0.038862567 0.007446742
0000a0 fb 09 e2 3d 0b 5f 07 3c d8 f8 f9 3c a0 4f e7 bd
       0.1103706 0.008262406 0.030514166 -0.11294484
0000b0 6e 53 1d be ff 61 31 bc 1a 6a cc 3d 6a 0b d4 3d
       -0.15363857 -0.010826587 0.09981175 0.103537396
0000c0 9c 20 0a 3d 03 f8 2a 3c a8 c0 f2 bd 80 2b a8 3d
       0.033722505 0.010435107 -0.118531525 0.08211422
0000d0 1d 80 b8 bc d4 36 bc bc a0 c1 f5 3c 88 f3 81 3a
       -0.022522027 -0.022975363 0.029999554 0.0009914497
0000e0 38 ed a5 bd 5e 2e 0b be 3a 0c 19 bd 34 49 3c 3d
       -0.081018865 -0.13591906 -0.037365176 0.04596825
0000f0 b0 37 ed 3b 05 46 f8 3d cc b3 5a bc 8e 50 1c be
       0.0072393045 0.1212273 -0.013348531 -0.15265104

mlp.5.running_var f4 [64]
000000 35 fd 5f 3e f0 12 23 3e 09 91 2b 3e a7 d5 19 3e
       0.21873935 0.15925193 0.16754545 0.15022908
000010 bb 41 56 3e 43 6a 57 3e b5 3a 27 3e ae e2 61 3e
       0.20923512 0.2103663 0.16330989 0.22059128
000020 d4 bb 7e 3e 9b 9e c5 3e fb d4 86 3e 7a c8 3d 3e
       0.24876338 0.3859757 0.26334366 0.18533507
000030 02 6b 82 3e fd 7f f1 3d 13 04 0a 3e be 88 1e 3e
       0.25472265 0.1179199 0.13478117 0.1548185
000040 3e e7 29 3e 43 63 5a 3e 0e a3 12 3e ee 86 30 3e
       0.16592118 0.21326928 0.14320013 0.17238972
000050 29 ff 1b 3e 04 74 90 3e 13 21 0e 3e c6 48 73 3e
       0.15234055 0.28213513 0.13879804 0.2375823
000060 97 d7 85 3e 1e fc 4a 3e 90 58 09 3e 6e bc 40 3e
       0.26141044 0.19822738 0.1341269 0.1882188
000070 90 59 38 3e 75 72 88 3e 22 24 38 3e fd 3d 63 3e
       0.18002915 0.26649824 0.17982534 0.22191615
000080 22 65 3f 3e f3 18 85 3e 42 02 20 3e d4 55 94 3e
       0.18690923 0.25995597 0.15625861 0.28971732
000090 65 99 a5 3e 19 22 73 3e 3c 56 0a 3e 89 a3 f9 3d
       0.32343593 0.23743476 0.13509458 0.12189395
0000a0 bc d0 36 3e ce b9 6f 3e 19 f7 46 3e 1a 0f 73 3e
       0.17853063 0.23410723 0.19430198 0.2373623
0000b0 26 97 22 3e b1 df 19 3e 6d 6d 2c 3e c7 e5 e3 3d
       0.15877971 0.15026738 0.16838618 0.11127811
0000c0 d8 b3 17 3e e8 dd 6d 3e 3e 3a 00 3e 66 8f 8f 3e
       0.14814699 0.23229182 0.12522218 0.28039092
0000d0 53 71 15 3e 10 3b 78 3e 26 46 70 3e 2f 10 7c 3e
       0.14594011 0.2424128 0.2346426 0.24615549
0000e0 d3 93 2a 3e a2 90 51 3e 25 fa 50 3e 38 78 28 3e
       0.16657953 0.2046533 0.20407923 0.1645211
0000f0 d1 28 62 3e 65 57 89 3e aa dd 92 3e 1f bf 45 3e
       0.22085883 0.2682449 0.2868474 0.19311188

mlp.7.weight f4 [64, 64]
000000 13 1e 37 be 8a d5 03 be 37 0b 7e bd 4c 4c 8d bd
       -0.17882566 -0.12874427 -0.062022414 -0.06899318
000010 0e 8f 45 bd eb f7 bc 3c 64 4c 88 bc 1e c5 81 bd
       -0.04823213 0.023067435 -0.016637988 -0.06336425
000020 c8 26 a7 bd 52 b8 3e 3b c0 d0 c4 bd 81 d5 7b bd
       -0.08161694 0.0029101563 -0.096101284 -0.06148291
000030 e2 b3 02 3e f0 8f e7 3d 4c aa a5 bb fa b0 9c 3c
       0.12763932 0.11306751 -0.0050557014 0.019127358
000040 ab 8e ef bc ae c3 b1 bd d8 15 11 3d 70 fc a1 3d
       -0.029242834 -0.08679901 0.035421222 0.07909477
000050 93 40 f2 bc 1c af 5f 3e f7 0e 11 3c 91 3b 09 3c
       -0.029571807 0.21844143 0.008853666 0.008376018
000060 5e 15 30 3d 59 1c 7f 3d 36 8d 43 bd 6a 6d 8c 3c
       0.042989127 0.062282894 -0.04774209 0.017142016
000070 41 61 97 bd 69 62 af bd 27 eb f3 bc 83 d4 aa 3d
       -0.073915966 -0.08563692 -0.029775215 0.08341315
000080 59 4e d5 3c e2 b8 16 bc 58 3b 00 3d e2 05 bd 3c
       0.026038336 -0.009199353 0.031306595 0.023074094
000090 48 c4 c2 3d 31 38 4e bb 46 32 6d bc cf fd 28 3d
       0.09510094 -0.0031466598 -0.014477318 0.041257676
0000a0 e4 59 f1 3c c7 e2 b0 3d 82 93 4c 3e b9 de 09 bd
       0.029461809 0.08637004 0.19978145 -0.03365967
0000b0 89 6c ca 3b fb 44 9c bc a6 d8 fa bc b4 87 8c bb
       0.006177489 -0.019075861 -0.030620884 -0.004288638
0000c0 03 a0 4f bd c8 da a0 3d e7 be 84 bd 51 93 11 3e
       -0.05068971 0.07854229 -0.06481724 0.14216353
0000d0 90 dd d1 3c 21 e0 e5 3c 88 5b 1b 3e fc d3 12 3d
       0.025618345 0.028060975 0.15171635 0.035846695
0000e0 44 77 a8 3d 43 75 99 bd eb f4 2e 3d 79 55 98 3e
       0.08225873 -0.07493069 0.04271404 0.2975271
0000f0 7e c0 98 3d b8 59 de bb 29 33 6f 3d c2 f2 dc bd
       0.0745859 -0.0067855977 0.0583984 -0.1078849
000100 05 61 31 3d 6e e7 e7 3c 7f 8e 0b 3d 01 5c 1d 3d
       0.043305416 0.028308596 0.03407144 0.03841782
000110 fc e2 24 bd 44 04 e1 3c 31 7d c1 be 2f 49 c4 3c
       -0.04025553 0.027467854 -0.37790826 0.023960678
000120 8a 3f d6 bc dc cb 0a bd e9 b4 9d bd 0e b9 aa 3d
       -0.026153345 -0.03388582 -0.077005215 0.08336078
000130 87 34 4c 3d 8a e0 0c 3d ee 42 3c bd f1 5f 69 bc
       0.04985478 0.034393825 -0.045962267 -0.014244066
000140 5e 5b d1 bb 93 6c 0f 3d 0f 7a b7 3c d5 7d 47 bc
       -0.0063890656 0.035015654 0.02239707 -0.012175997
000150 0c 57 f8 bd 70 92 11 bd 98 34 2e be 47 d7 77 bd
       -0.12125978 -0.035540044 -0.1701225 -0.06050804
000160 ec 38 8d bc 7e 16 ae 3d 08 59 10 3e d3 e7 dd bc
       -0.017239057 0.08500384 0.14096463 -0.027088081
000170 f2 a1 de 3b 32 45 51 bd f4 ea ff 3d 85 eb fd bc
       0.0067942077 -0.05109138 0.124959856 -0.030996094
000180 e4 89 78 3c f3 ec 44 3b ca 73 07 3e e3 86 98 bc
       0.015169594 0.003004846 0.13227764 -0.018619006
000190 f0 7b d4 bc 66 d5 63 bd 5d df a4 3c 4b 3e a5 bc
       -0.025938004 -0.055623434 0.02012604 -0.020171305
0001a0 19 2d 9d be d0 69 f6 bc 68 4d a3 bd 66 51 93 bc
       -0.3069847 -0.030079752 -0.079737484 -0.01798315
0001b0 0a e7 94 3e 3c 44 9c bc 71 e6 d8 3d 04 b9 2b 3d
       0.2908252 -0.019075505 0.10590828 0.04192449
0001c0 9d 4f 86 bd 76 24 88 bd db 07 0d 3c 9c 8b c7 3b
       -0.06558154 -0.06647579 0.00860783 0.006089641
0001d0 e5 5b d7 bb 9e 7c 2d bd 12 fd 8f 3d 01 bc b6 3c
       -0.006572234 -0.042355172 0.07030691 0.022306444
0001e0 f2 05 83 3d 2d 4b 17 bd 49 28 7b bd 17 ed 40 3d
       0.06397618 -0.036936928 -0.061317716 0.047101106
0001f0 8d 73 8a bd 70 96 5e bc a2 b1 42 bd 8e 7b 95 b9
       -0.06760321 -0.013585672 -0.047532685 -0.0002851155
000200 87 c5 bc 3d 12 c8 64 3c 76 b1 7f 3d 89 d2 16 bc
       0.09217363 0.013963716 0.0624251 -0.009205469
000210 a7 37 45 bb b2 6b f6 3c 89 1c 94 be f9 1a 25 3c
       -0.0030092986 0.03008065 -0.2892802 0.010077232
000220 f4 6c 96 3d fc ea a4 3b 52 61 47 bd 48 0e 58 3c
       0.07345 0.005032895 -0.048676796 0.013186999
000230 9f fc 14 3d 1c a5 bf bc 28 e7 c7 bc 6c b4 0d 3d
       0.03637373 -0.02339416 -0.024402216 0.03459589
000240 11 3e 0a 3d c3 76 52 3d 95 7d 75 3d 7d 0c 2a bd
       0.033750597 0.05138279 0.059934217 -0.041515816
000250 46 f9 68 bd 80 61 a5 3c e3 ae 8a be b2 08 ab bd
       -0.05687835 0.020188093 -0.27086553 -0.08351268
000260 88 11 2e 3c 7e 4e 0f bb 1d 2c 6f 3e 0e ac 21 3d
       0.010624297 -0.0021866853 0.23356672 0.039470725
000270 20 ef a5 3d df ea 2a bd ed 91 9f 3d 85 e0 61 bd
       0.0810225 -0.041727897 0.07791505 -0.05514576
000280 7a 56 16 3d 0c d9 88 3c 18 ea 8c 3d 10 6b 98 3d
       0.036703564 0.016705059 0.06880587 0.074422956
000290 13 20 a7 bd 2d a2 85 bc 7d 7d 5c bc ef d5 1a bd
       -0.081604145 -0.016312683 -0.013457653 -0.03780168
0002a0 bc 4e c7 be 36 59 26 3d 96 7c 04 3c 56 42 86 3c
       -0.38927257 0.040612422 0.008086344 0.016389053
0002b0 7a 7d aa 3e a5 54 08 3d 55 d4 f3 3d 63 28 95 3c
       0.33298856 0.03328385 0.119057335 0.018207734
0002c0 81 68 dc 3c 4c 23 9d bd dd ad 38 3c 90 a8 b4 bd
       0.0269053 -0.07672748 0.011271921 -0.08821213
0002d0 dc 9b 86 bd 58 36 92 37 7f 03 f1 bc 8a 8d df 3c
       -0.065726966 1.7429862e-05 -0.029420612 0.02728917
0002e0 e9 bc f1 bc 5e 79 cc bc c4 4b 12 3d d9 96 35 bb
       -0.029509025 -0.024960216 0.035716787 -0.002770832
0002f0 3b b9 17 3d 0d ee 97 3c e0 23 00 bd 94 6b 57 3d
       0.037041884 0.018546129 -0.031284213 0.05259283
000300 73 e2 a2 bc 7c 88 54 bc e8 83 02 3d 64 66 fc 3a
       -0.01988337 -0.012971994 0.031864077 0.0019256589
000310 1e 4d 48 3c ff 4d e6 3c b2 63 5c 3c c5 5b 9e 3d
       0.012225417 0.028113363 0.013451504 0.077323474
000320 4b db 2c 3d 7b e3 49 bc 21 2b a2 3d d8 fe 20 3d
       0.04220132 -0.012322302 0.079183824 0.039305538
000330 02 84 24 3d 31 71 cb bd 7f 00 0b bd 7e 9a 11 bd
       0.040164955 -0.09933699 -0.03393602 -0.035547726
000340 ac b6 fd 3b 62 93 ae 3c 82 05 90 be db de b4 be
       0.0077427235 0.021310512 -0.28129202 -0.35326275
000350 24 f8 53 39 b0 45 ab bd 4e 45 40 bd 26 7e fd 3c
       0.00020214968 -0.08362901 -0.046941094 0.030943941
000360 44 83 8f bd d1 b6 e5 bb 33 ae 9f bd ce 73 31 bc
       -0.07007459 -0.007010319 -0.07796898 -0.010830833
000370 49 80 f5 3c 52 16 18 bb c9 8c 84 3c 4c 41 2a 3c
       0.029968398 -0.0023206663 0.016180413 0.010391545
000380 05 e1 de bc 6c 9b ee 3c 8e 69 0b bd fe 15 eb 3b
       -0.027206907 0.029126845 -0.03403621 0.0071742525
000390 f7 e5 2b bd d0 b2 26 3d f1 13 09 3e e9 82 75 bb
       -0.04196736 0.040697873 0.13386513 -0.0037462062
0003a0 30 f8 76 3c 3b c3 f4 bc 84 70 01 be 71 51 a2 3d
       0.015073821 -0.02987825 -0.12640578 0.0792569
0003b0 14 99 43 ba 54 5f 7a 3c 76 51 98 bd 63 ab cc 3b
       -0.000746147 0.015281517 -0.074374124 0.006246017
0003c0 c4 1a 81 3d 52 fc c7 3c d2 0c bd 3d f2 85 81 bd
       0.06303933 0.024412308 0.09230961 -0.06324376
0003d0 e1 e9 cc bb 79 df a5 bd 94 b0 85 3d d5 a5 e3 3c
       -0.0062534665 -0.08099265 0.0652782 0.027789036
0003e0 ed c6 1f 3e 40 1e 47 3c c1 88 59 bd 13 3f 6b be
       0.15603228 0.012153208 -0.053108934 -0.2297328
0003f0 a7 d8 9e bc 4d ff 44 bc 51 c8 1d bd bc 07 5c bc
       -0.019390417 -0.012023759 -0.038521115 -0.013429578

mlp.7.bias f4 [64]
000000 7a c5 91 3b 74 50 0b bd 9f b5 71 3c 04 02 9b 3c
       0.00444859 -0.034012273 0.0147527745 0.01892186
000010 9a 80 b7 bd 15 a9 d0 bd e8 1e ad bc b1 a0 92 bd
       -0.08960076 -0.101885 -0.021132901 -0.07159556
000020 e9 b8 02 bd 53 8e 9d bc 95 a9 af 3d 3a 90 5f bb
       -0.031914625 -0.019232905 0.08577267 -0.0034113065
000030 7f 56 ae 3d 74 15 f4 3c 42 f8 f3 bc 85 5f 09 3d
       0.085125916 0.029795386 -0.029781464 0.03353836
000040 83 ca f3 3b 86 ce 0f bc be 2c ab bb c0 41 46 3d
       0.0074399128 -0.008777266 -0.0052238395 0.048402548
000050 1c bd 18 3d 6b db 7c bc e1 44 a1 3c 55 bf a0 3d
       0.037289724 -0.015433173 0.019686164 0.07848994
000060 f1 57 6a bd 81 44 df 3a 1d 70 a7 bc 7d 9d b6 3c
       -0.057212774 0.0017033966 -0.020439202 0.022291893
000070 a7 32 60 bd 73 e7 67 3a 5b f0 75 3d a6 75 ef 3d
       -0.054735806 0.00088464393 0.060043674 0.116923615
000080 23 ce 79 3d 98 ab 89 bc cb f7 8b be 04 81 09 bd
       0.060987603 -0.016805455 -0.2733749 -0.033570305
000090 00 67 3c 3d 80 59 a2 3d bc 37 89 bc b4 e1 0d 3e
       0.045996666 0.07927227 -0.016750209 0.1385563
0000a0 79 50 11 3d 63 78 2a bc 9b 15 44 bd 60 81 71 3d
       0.035477135 -0.010404679 -0.047872167 0.058961272
0000b0 df 33 6f 3c d4 7d c7 3c 40 a0 37 bd ef 0c 14 3d
       0.014599769 0.024351992 -0.04483056 0.036145147
0000c0 40 c4 e6 3c 89 2a 09 3c 90 6f 97 bd 45 0f 0f bc
       0.028169751 0.008371958 -0.07394326 -0.008731668
0000d0 69 1a ee bc 98 3c b7 3c a8 d4 b0 3d 6e 67 94 bc
       -0.029065328 0.02236776 0.08634311 -0.018115725
0000e0 1e 08 45 3d 8c 3d eb bc 25 02 35 bd 09 9e e1 bc
       0.048103444 -0.028715871 -0.0441915 -0.027541177
0000f0 8f 16 93 bc 88 9a 82 3d 58 be 66 bd 19 7a 7c bd
       -0.017955093 0.06377131 -0.05633387 -0.06163988

mlp.9.weight f4 [64]
000000 d7 61 ce 3e 70 10 80 3e 9c c7 79 3e 56 85 06 3f
       0.4030902 0.2501254 0.24392551 0.52547204
000010 5b 2f 5b 3e c2 c0 82 3e 31 86 a0 3e 76 27 61 3e
       0.21404783 0.25537688 0.3135238 0.2198771
000020 02 d9 0d 3f e2 e5 95 3e 6d 0a 53 3e e2 c1 e2 3e
       0.5540925 0.2927695 0.20609446 0.44288546
000030 19 89 bd 3e 91 25 63 3e 27 23 91 3e a9 ff 2a 3f
       0.3701866 0.22182299 0.28347132 0.66796356
000040 ee 15 78 3e ed ae 5e 3e 3c 0e 01 3f 98 1d e5 3e
       0.24227116 0.21746416 0.50412345 0.4474914
000050 80 7d 90 3e eb c0 0a 3e 30 ef 5b 3e b0 2e d1 3e
       0.2822075 0.13550155 0.21477962 0.40855932
000060 b5 27 ac 3e 6a bc 59 3e a8 b1 e1 3e 83 0d a2 3e
       0.33624044 0.2126328 0.44080853 0.31650934
000070 17 16 3d 3e c8 c9 d3 3e f1 14 ac 3e 21 5d 81 3e
       0.18465458 0.41364884 0.33609727 0.25266364
000080 1a 5a 60 3e 1f da 6b 3e 8c a3 cf 3d e6 d5 f7 3e
       0.21909371 0.23032425 0.10138616 0.4840538
000090 10 8b c2 3e 90 9f f0 3e af e4 1f 3f 64 04 10 3e
       0.3799672 0.46996737 0.6245832 0.14064175
0000a0 cd 1b 59 3e 97 1e ad 3e c1 80 95 3e 9a 91 84 3e
       0.21202011 0.338124 0.29199794 0.25892335
0000b0 f4 e1 6e 3e 89 37 81 3e ae 60 f2 3d f9 04 e0 3e
       0.23328382 0.25237682 0.118348464 0.43753794
0000c0 2e c8 e8 3e b5 87 2d 3f 72 dd ba 3e 16 e2 52 3e
       0.45465225 0.677852 0.36497074 0.20594057
0000d0 92 cf c2 3e e5 0b 0d 3f a7 12 95 3e ef 32 f3 3e
       0.3804899 0.55096275 0.29115793 0.47499797
0000e0 e2 5a 6a 3e 77 8b 1b 3e b6 56 78 3e 69 0a 1d 3f
       0.22886232 0.1518992 0.24251828 0.6134401
0000f0 60 4d 9d 3e 75 e7 64 3e bb 11 24 3f 0f e3 40 3e
       0.30723095 0.22353919 0.64089555 0.18836616

mlp.9.bias f4 [64]
000000 d7 40 c7 3e 86 23 00 bf 39 8e d9 be 14 88 bb be
       0.38916656 -0.50054204 -0.4249132 -0.36627257
000010 16 94 e0 be 57 c1 e8 be 29 4c d5 3e 59 c8 e1 3e
       -0.4386298 -0.45460007 0.41659668 0.44098166
000020 9e 0c d1 be 7d 8d 00 3f 23 80 dd be 95 b7 d6 be
       -0.4082994 0.50215894 -0.43261823 -0.41936937
000030 51 cf e4 be 58 58 ea be 56 80 e4 be 62 e9 b5 3e
       -0.4468942 -0.45770526 -0.44629163 0.3552962
000040 e3 a0 e1 3e 25 63 df 3e 69 85 ca be 5f 8b ce 3e
       0.4406806 0.4363033 -0.3955491 0.40340707
000050 8c 4f e6 3e 6a 8e de be de 63 e4 3e cf 63 cc be
       0.44982564 -0.43468028 0.44607443 -0.39919898
000060 90 2b d3 3e 7a 0d e0 be 22 6d ce be bd 63 da be
       0.41244173 -0.43760282 -0.40317637 -0.4265422
000070 02 95 da be d8 d9 e8 be 82 86 d2 be 7c 77 d4 3e
       -0.4269181 -0.45478702 -0.41118246 0.4149741
000080 ec 90 f4 be 75 c0 e7 be 8a d9 f9 3e 1c 16 c8 be
       -0.47766817 -0.4526402 0.48798782 -0.39079368
000090 ab 2a d9 3e bc 0c c3 be 02 fd b4 be 22 a2 fa be
       0.42415366 -0.38095653 -0.3534928 -0.48951823
0000a0 13 d4 d4 3e df bc e6 3e 59 57 da 3e 2a e5 d1 be
       0.4156805 0.45065972 0.42644766 -0.4099515
0000b0 97 28 ee 3e c9 1f dc 3e 3a e1 00 3f d1 36 c8 be
       0.46515343 0.42993 0.5034367 -0.39104322
0000c0 90 e8 ca be c2 ca b4 3e 0b ea d2 3e 52 5d d2 be
       -0.39630556 0.35310942 0.41194186 -0.41086823
0000d0 0d 46 e3 be 60 49 b9 be 63 bf d6 be 14 03 d2 3e
       -0.44389382 -0.36188793 -0.4194289 0.41017973
0000e0 ba b5 e4 be 8f 2b df 3e 2f e3 d8 3e ea 08 c2 3e
       -0.44669896 0.4358792 0.42360827 0.37897426
0000f0 49 a2 d7 3e c9 9d da be 28 e1 bc 3e c3 a2 d1 be
       0.42116 -0.42698506 0.3689053 -0.4094449

mlp.9.running_mean f4 [64]
000000 9e a8 38 3d b3 35 ad bd 35 27 81 bd d3 18 3a bd
       0.04508268 -0.08457508 -0.06306306 -0.04543383
000010 44 53 b6 bd ad 1e d0 bd 6e 4c 3a 3d 95 27 38 bd
       -0.089026004 -0.10162101 0.045483045 -0.044959623
000020 5d 31 cb 3c 70 fe 68 3d 3d f0 49 bd bb de 7e bd
       0.024803812 0.056883276 -0.049301375 -0.06222413
000030 0b ac 2a bd d5 e2 56 bb d3 69 b0 bd 39 2b 88 3d
       -0.04166798 -0.003278901 -0.08613934 0.06648869
000040 e3 47 96 3d 9c af 08 bd 41 80 1c 3d e4 a0 29 bc
       0.0733793 -0.0333706 0.03820825 -0.010353301
000050 7a ee 56 bc ad c7 01 3d 3a 58 10 bd 64 aa 81 3d
       -0.013118381 0.031684566 -0.03524039 0.063313276
000060 01 b6 0f bd 34 d2 6b bd 36 d9 51 bd 64 18 5f bd
       -0.03508568 -0.057573512 -0.05123254 -0.05446662
000070 8f 8d af bd 34 f8 87 bd 9d ec 08 3d ec e1 de 3d
       -0.08571922 -0.06639138 0.033428777 0.10882935
000080 f4 4d 34 3d 80 08 86 3c 23 de 21 be 37 75 06 3d
       0.044019654 0.016361475 -0.15807395 0.03282663
000090 b0 c7 8e 3d d1 fe 89 3d 38 d9 97 bd 1e 38 d5 3d
       0.06971681 0.067380555 -0.07414478 0.10411094
0000a0 be 09 c0 3d cc dd 4d bc f8 c4 19 3d 58 b7 58 bc
       0.09376858 -0.0125650875 0.03754136 -0.013227306
0000b0 20 bf 05 bd 89 96 b1 3d 58 00 c2 bc f0 f0 48 3d
       -0.032652974 0.086712904 -0.023681805 0.0490579
0000c0 01 e4 4c 3d 39 10 57 3d ce ab 73 bd 73 5c ef 3c
       0.05002213 0.052505706 -0.059490018 0.029218888
0000d0 f5 39 1b ba 38 ab 20 3d c3 01 78 3d 85 a1 a4 3c
       -0.0005921417 0.039225787 0.060548555 0.02009655
0000e0 63 bf 1b 3d df 96 0b 3c 6d 47 23 bd b0 b3 4b bd
       0.038024317 0.008519857 -0.03986304 -0.04973191
0000f0 07 c9 a4 bc a6 a9 4c 3d fe 77 51 3d 72 42 c9 bc
       -0.020115389 0.049966477 0.051139824 -0.024567816

mlp.9.running_var f4 [64]
000000 4a 55 33 3f c0 cc 44 3f 1b 30 3a 3f cf 2a 35 3f
       0.70052016 0.76874924 0.72729653 0.70768446
000010 75 e8 44 3f 42 7c 42 3f c0 a8 4a 3f 88 64 4b 3f
       0.769172 0.7597085 0.7916374 0.79450274
000020 67 b0 40 3f 7d 6a 2c 3f 98 9e 45 3f 83 1f 41 3f
       0.7526917 0.6734999 0.7719512 0.7543871
000030 6d 10 4f 3f 59 52 13 3f d8 4b 54 3f 26 78 26 3f
       0.8088444 0.5754753 0.8292823 0.6502708
000040 76 03 49 3f 44 e0 45 3f 42 d0 3c 3f 2c 45 29 3f
       0.78520906 0.7729533 0.73755276 0.6612117
000050 8d 26 2a 3f 90 0e 19 3f df ac 49 3f 3a c5 48 3f
       0.66465074 0.59787846 0.78779405 0.78425944
000060 01 84 45 3f 8c 6b 38 3f bf 3d 2a 3f dd c3 3a 3f
       0.77154547 0.72039104 0.6650047 0.72955114
000070 41 f3 2b 3f 4a 52 4c 3f c1 e9 41 3f 7d 4b 53 3f
       0.6716805 0.79813063 0.75747305 0.8253706
000080 6b a4 29 3f 01 19 30 3f 6e d8 c3 3e c5 8c 48 3f
       0.66266507 0.6878815 0.3825106 0.783398
000090 3a 72 52 3f 04 78 3a 3f 40 42 42 3f 24 3f 0f 3f
       0.82205546 0.7283938 0.7588234 0.5595572
0000a0 69 e1 3e 3f cf ca 52 3f fd b2 42 3f c8 40 22 3f
       0.745627 0.8234071 0.76054364 0.633801
0000b0 7e 1d 42 3f a7 ea 53 3f e7 2d d3 3e 49 ef 3e 3f
       0.7582625 0.82779926 0.41245958 0.7458387
0000c0 1a dd 4d 3f 25 b4 23 3f a9 c5 4e 3f 07 fb 34 3f
       0.804155 0.63946754 0.80770355 0.7069554
0000d0 6b 88 18 3f 08 d9 35 3f 19 95 45 3f fa 47 15 3f
       0.5958316 0.7103429 0.7718063 0.5831295
0000e0 b2 d6 4c 3f 75 7e 11 3f d6 d7 4e 3f 66 0d 3f 3f
       0.800151 0.56833583 0.8079809 0.7462982
0000f0 9e af 35 3f 2a ad 54 3f 14 ad 37 3f 50 ff 11 3f
       0.70971096 0.8307673 0.7174847 0.570302
